the model.pth (torch, 2663 bytes, 6 tensors)

layer1.weight f4 [8, 4]
000000 7b a2 2a be 39 ff 1c 3f 5c ec 03 bd 8f 5c 78 3e
       -0.16663544 0.6132694 -0.03220783 0.24254058
000010 c0 23 e6 be f0 25 63 3d 7a 7f 92 3e 56 02 e3 be
       -0.4494915 0.055456102 0.28612882 -0.4433772
000020 46 81 91 3e 78 3b b4 be 0e 1d ec be 10 e3 ca be
       0.2841894 -0.3520162 -0.46115917 -0.3962636
000030 33 3c d8 bd 3d fc 95 be da 11 0f 3f af f3 6c 3e
       -0.10558357 -0.29294005 0.55886614 0.23139833
000040 79 c7 1f 3e ca 60 6e bd ad 38 2e 3f 5b cb 48 3f
       0.15603437 -0.058197774 0.6805523 0.78435296
000050 a4 81 a2 be f0 8d c0 be 58 1a 97 bd 18 7f f1 3e
       -0.31739533 -0.3760829 -0.073780715 0.47167277
000060 da 82 c8 3e ef a5 0b 3f b2 83 e8 be 26 e3 d9 be
       0.39162332 0.5455007 -0.45412976 -0.42556113
000070 bc cf 5d be cc 13 81 3e f0 7c 0c be 70 a3 fe 3d
       -0.21661276 0.25210416 -0.13719535 0.12433517

layer1.bias f4 [8]
000000 ea d8 d0 3e 3c 19 95 3e 20 43 47 be 08 68 fc be
       0.40790492 0.29120815 -0.194592 -0.4929812
000010 71 1f 60 3e 70 8f 3c be 94 a7 7a be b0 92 ab 3d
       0.21886994 -0.18414092 -0.24477988 0.08377588

layer2.weight f4 [8, 8]
000000 1c 94 43 bc c5 74 8c be 84 f9 51 3e e6 c5 66 be
       -0.0119371675 -0.27432838 0.20505339 -0.2253643
000010 35 a9 90 be b6 34 72 be a1 95 d9 3b 42 8d 65 3d
       -0.28254095 -0.2365292 0.0066401516 0.056042917
000020 35 21 80 be 90 7c eb 3d 2c 90 ff bd 7e 65 e7 bd
       -0.25025335 0.11498368 -0.124786705 -0.11298655
000030 69 92 be 3d 86 a3 de 3d 3f 2c 97 be e5 61 8f 3e
       0.09305269 0.10871033 -0.29525945 0.28004375
000040 a5 7c 52 be 8c ca b0 3c 53 95 54 3d de e4 08 3f
       -0.2055536 0.021580957 0.05190022 0.53474224
000050 67 3d 30 3e 55 7a 32 3e 3e b3 15 bf 9e e1 3a be
       0.17210923 0.17429478 -0.58476627 -0.18250129
000060 82 44 81 3e b5 3f df bd 41 bc 82 be 37 61 42 3e
       0.2524758 -0.10900823 -0.2553425 0.18982397
000070 3c b4 44 be 59 a0 48 bc 22 33 b2 be 7e 7a 3a 3e
       -0.19209379 -0.012245261 -0.34804636 0.1821079
000080 4d 9a 6a be 5c 84 03 3e 62 d2 12 3e c4 8b 93 3e
       -0.22910424 0.1284346 0.14338067 0.2881757
000090 c8 98 19 bd 51 67 95 3d 61 74 49 be cc 08 9b bd
       -0.03749922 0.07295097 -0.19673301 -0.07570037
0000a0 a4 18 ae be 28 ed 91 3d 77 54 af bd fd 23 54 3e
       -0.34003174 0.07125312 -0.08561032 0.20716853
0000b0 53 ee 9a bd b6 7f 69 3e 0e 62 b7 3d ba fe 76 be
       -0.07564988 0.22802624 0.08954249 -0.24120608
0000c0 0f 2c 65 be 3a 8e 83 be b7 1d 88 be 47 30 9d 3e
       -0.22380088 -0.25694448 -0.2658517 0.30700895
0000d0 9b a7 6e 3f e6 ff 8c be 86 7d 1c bf 8b 2b 1e 3d
       0.93224496 -0.27538985 -0.61129034 0.038615745
0000e0 a5 ea 8f be 71 be 07 be f3 b5 83 be ac ad 74 3e
       -0.28108707 -0.13256241 -0.25724754 0.23894376
0000f0 39 d1 93 be ff 78 e9 bd 05 f9 99 be b9 a3 10 be
       -0.28870562 -0.11400031 -0.300728 -0.14124955

layer2.bias f4 [8]
000000 b3 ab 8f be 8a da ae be 63 d6 38 be 2b eb e5 bd
       -0.28060684 -0.34151107 -0.18050532 -0.11226495
000010 5f f7 18 be 34 99 c5 bd 21 0e 33 be cf 3e 84 be
       -0.14938115 -0.09648362 -0.17485859 -0.2582917

layer3.weight f4 [3, 8]
000000 18 a7 95 3e e6 9f 2e be 51 c3 5c 3d b1 81 c1 bc
       0.29229045 -0.17053184 0.053897206 -0.023621412
000010 9b 77 b2 be f5 25 1d 3c ee 6f 6a bf 1c 85 85 3e
       -0.34856877 0.009591569 -0.9157704 0.26078117
000020 bf d4 be 3d b2 3c 14 3d 54 77 19 bf f8 26 1e 3e
       0.09317922 0.036190696 -0.59947705 0.15444553
000030 20 ae 6a 3d d4 04 b4 3e 52 2f eb 3e 59 ab a2 3e
       0.057294965 0.35159934 0.4593454 0.31771353
000040 7e 53 dd bd eb e7 1c be ba 96 2c 3f 10 d2 10 3e
       -0.108069405 -0.15322845 0.6741749 0.14142632
000050 a3 3e 9e be 98 2e ac 3e c0 78 01 3f 59 5d af bd
       -0.30907163 0.33629298 0.50574875 -0.085627265

layer3.bias f4 [3]
000000 af 78 8d 3f 2b 2e ab bd 64 6f 76 bf
       1.1052455 -0.08358415 -0.9626372
